classification/01_lenet/Lenet.pth (torch, 487495 bytes, 10 tensors)

conv1.weight f4 [16, 3, 5, 5]
00000000: 341a 82bd 8ee1 21be c1b3 9b3c 12c5 8fbd
00000010: eebf 0f3e e4e3 1cbe 460c fdbd dee7 8fba
00000020: 0e82 0dbd 7129 e2bc 6504 0ebe 467b ffbd
00000030: a402 8c3c 2157 91bd e425 72bb 4c54 e13c
00000040: cd21 d13c 656e 713c 6e1c 3dbd 93dd b4bc
00000050: 44ec 493d 04e8 ae3d 34b4 a93d d9b1 5a3d
00000060: d5ce 9dbc ce77 40bd 3226 ddbd a2ba 7bbd
00000070: 1d55 24bc 4e30 003e 041d cbbc a2c5 8fbb
00000080: ee95 dbbd 8341 0e3e d7cc a13d 6cc7 06be
00000090: 89c2 94bd b615 6b3d 0c1c 52bd 43f9 b8bd
000000a0: 69c3 25bd c2ac 25bc 6b1a 63bc 3ec1 853d
000000b0: f172 40be 14e2 ebbd de8e 863b 223d 43bb
000000c0: b869 0ebd 833c 57be 193e 22be 3d24 a9bd
000000d0: 78be cabd a91b 733e 22a9 f73d 10db 27be
000000e0: 50fe 8cbb d170 013e f973 693e 1bae 383c
000000f0: 8c79 713d 6bf1 893d d111 363e 317a 4e3e
00000100: 4d8d 163d c419 0f3d 081f 213e 3b7d 7e3e
00000110: 8625 163e a2e6 d63c 2d7d b03d 822e b43c
00000120: 4710 fe3d 74bf 853d cd15 9abd ccd1 b8bb
00000130: 42bd a2bd 9356 d83d e2e5 f3bb a084 123d
00000140: 4f5e 2cbd e6e2 27bd 558b 5ebd f8f3 103e
00000150: ce00 353d 3daa 0cbe a3f1 27be d6be 473d
00000160: 7d25 3d3e 56fa 7cbb 2c6c d8bd dc91 e0bd
00000170: 3b02 453d 3bad 593e 46a9 40bd b015 76bd
00000180: f9b8 9a3c 783b 27bd a62e 0d3d a6ec 013e
00000190: 030d 033d f63f aebd a91e afbd 1c66 c0bd
000001a0: 5762 6d3d 331a 18be 1ae3 1bbe c09c fe3c
000001b0: 948c 243e 42ab 113d 10df 40be 6c3f 0ebe
000001c0: 364d 173d 878a 323e a6c3 183d 2eb3 74be
000001d0: 7e58 49be ec45 a53d 60d2 1c3e cbea 4a3d
000001e0: 8027 27be b675 1b3d d5b5 e53d 2a54 8e3d
000001f0: b372 c33c bf6d 75bd 47a8 e73b 6fa6 b33d
00000200: 47fe 0c3d 764a 78bd c265 d9bd a5d0 dcbd
00000210: 73b2 313d 4da9 d73c 7670 963d ab15 66be
00000220: a387 58bd 0774 6d3d 72c6 643e a609 443d
00000230: db13 0fbe 272e 88bd e694 1c3e 1414 fb3d
00000240: 9fbd 113e 766b 03bd b0b3 dfbd a093 70ba
00000250: 449f 323e 2cce 71bd 741a 2ebd de75 dd3d
00000260: 3ba6 153e e5cd 193e c119 933d 8048 fdbd
00000270: 63fb f0bd 36ec 0abe e967 1e3d a843 fbbc
00000280: a5b1 fd3d d575 233e b33c 803d 5dfc 3ebd
00000290: 1ba0 003e 9941 14be a7e5 d63c 5733 95bc
000002a0: 2162 e63b af06 93bb 9bd9 04be 080d 45be
000002b0: f8fa 32be 3f29 acbd 7e2a bbbd c268 7ebd
000002c0: 4bc8 d4bd 4ce3 c6bd ac33 e3bd f169 3dbd
000002d0: 8cc7 113d 1cdc 8abd db74 01be 9f0d 17be
000002e0: 9268 02bc 2ddc 9c3d b06c 0b3e 8865 3a3e
000002f0: 6c6e ec3d 0f0f 553e faf1 4bbd 5514 013c
00000300: cacb 5e3d 856c 603c 4291 3abd 83ce 153d
00000310: b79f d8bd 19e2 3e3d ac83 a43c 58cf b83c
00000320: 86ee ca3c 3fd4 8cbd 833f 1fbe c5c6 3bbd
00000330: 95d1 2abe 2e7a fe3d ac1a a83d 0929 ed3c
00000340: c4a3 63bd da16 5dbe 6f71 753e 55af 163e
00000350: c055 863e e4fd 583e 6a94 df3d 3d9a 81bd
00000360: 9d3c e03c 194b 063e 85bf 123c 0a7a 9c3c
00000370: a0ce 443c 9b4e c2bd a738 9fbd a5ed fdbd
00000380: b64f 14bd 5fdc e03c 708a 7b3d d99b 18bd
00000390: bad2 87bd 0eec d73c d1ae 4cbd c3f4 0abe
000003a0: 7e18 d8bd 16e3 c1bd 2c25 7c3e 4ec7 01be
000003b0: a5c9 ec3d c08a 673d f381 97bd b573 37be
000003c0: 4e6e 073e f878 a2bd ecf9 0abe faa7 c63d
000003d0: 8df5 d9bd c126 c7bd 3a47 c2bd 9fd1 8a3d
000003e0: da55 babc 2bc8 b4bc d21e 653d 37db d03d
000003f0: 5291 f73d 75d5 11be b816 70bd a7f3 5c3c
-0.06352654 -0.15808699 0.019006612 -0.0702001 0.14038059 -0.15321308 -0.123558566 -0.0010979136
-0.034547858 -0.027607651 -0.13868864 -0.124746844 0.017091103 -0.07096697 -0.0036948854 0.027506016
0.025528813 0.014735793 -0.04616969 -0.022078311 0.049297586 0.08540347 0.08286324 0.053392265
-0.019263664 -0.046989255 -0.10798301 -0.061457284 -0.010030058 0.12518427 -0.02479411 -0.0043875733
-0.10721956 0.13892178 0.07900398 -0.13162011 -0.07263667 0.057393752 -0.05129628 -0.09031918
-0.04046956 -0.010111989 -0.013861279 0.06530999 -0.18793847 -0.1151773 0.0041063866 -0.0029791077
-0.03476879 -0.21019177 -0.15844001 -0.08258865 -0.0989961 0.2374102 0.120928064 -0.1639216
-0.0043027773 0.12640692 0.22798146 0.011271979 0.058953807 0.067355 0.17780234 0.201638
0.03675585 0.03493668 0.15734494 0.24852459 0.14662752 0.026233021 0.086176254 0.021994833
0.124054484 0.065306574 -0.075236894 -0.005640244 -0.07946254 0.10563388 -0.0074431757 0.035771012
-0.042082127 -0.04098787 -0.054332096 0.14155567 0.04419022 -0.13736816 -0.16400771 0.04876598
0.18471332 -0.003860136 -0.10567507 -0.109653205 0.04809783 0.21257488 -0.04703643 -0.060079277
0.01888703 -0.0408282 0.034468316 0.1268793 0.03199483 -0.08508293 -0.0855077 -0.09394476
0.057955112 -0.14853744 -0.15223351 0.031080604 0.16069251 0.035563715 -0.18835092 -0.13891381
0.03693887 0.17435656 0.03729596 -0.23896477 -0.19662663 0.08069977 0.15314627 0.049540322
-0.16323662 0.037954055 0.11216322 0.06949647 0.023858404 -0.059919115 0.007069621 0.08771979
0.034422185 -0.060617886 -0.10615112 -0.10781983 0.043383073 0.026325846 0.07345669 -0.22469203
-0.05286373 0.05797198 0.22341326 0.047860764 -0.13972418 -0.06649428 0.15291175 0.12259689
0.14232491 -0.032084905 -0.109229445 -0.0009177271 0.17443568 -0.05903451 -0.042505696 0.10813497
0.14614193 0.15019949 0.071826465 -0.12367344 -0.11766698 -0.1356667 0.038673315 -0.03067191
0.12387399 0.15962918 0.062615775 -0.04662739 0.12561075 -0.14478149 0.026232554 -0.018212957
0.007030741 -0.0044868807 -0.12973635 -0.19243252 -0.1747855 -0.084063046 -0.09138964 -0.062111624
-0.10389765 -0.09711322 -0.1109384 -0.04624361 0.035590693 -0.06780264 -0.12642233 -0.1475129
-0.007959502 0.07659183 0.1361568 0.18202794 0.11544499 0.20806526 -0.049791314 0.007878383
0.054393567 0.013697748 -0.045548685 0.036573898 -0.10577338 0.046602342 0.020082317 0.022559807
0.02477194 -0.0687642 -0.15551572 -0.04584386 -0.16681512 0.12425648 0.08208212 0.028950231
-0.0555761 -0.21590748 0.23969053 0.14715321 0.26237297 0.21190602 0.109169796 -0.06328247
0.027372653 0.13114585 0.008956795 0.019101162 0.012012154 -0.09487649 -0.077744775 -0.12398843
-0.03620883 0.027448831 0.06141132 -0.037258003 -0.0663199 0.026357677 -0.049971405 -0.13569932
-0.105515465 -0.09467141 0.24623555 -0.12673685 0.11561898 0.056528807 -0.07397833 -0.17915232
0.13225672 -0.07933229 -0.135719 0.09700008 -0.10642538 -0.097241886 -0.09486242 0.06778263
-0.022746015 -0.022068104 0.055937596 0.10198062 0.120882645 -0.14241584 -0.058615416 0.013485826

conv1.bias f4 [16]
00000000: a1d7 9cbe 6775 9bbd c6b9 d3bd 5b23 b53b
00000010: 2c8b 10be 058e 95bd 8c4c 1bbe 875d 8b3d
00000020: c6cc 153e ef99 543e 4420 5fbd 0423 33be
00000030: 933e 41be 8b78 46be 64f5 6dbd a0d5 9bbd
-0.30633262 -0.07590752 -0.10338168 0.0055278963 -0.1411559 -0.07302479 -0.15165919 0.06804948
0.14628896 0.20761846 -0.05447413 -0.17493826 -0.18871526 -0.19381921 -0.05809535 -0.07609105

conv2.weight f4 [32, 16, 5, 5]
00000000: 5cca 7dbd 2bb1 d7bd 2b78 2bbd 5f2c fd3c
00000010: eb4c b83c 65b4 86bd 02ca a4bc 0258 f1bc
00000020: 1757 0f3d eef0 943d db86 073c d607 0ebd
00000030: 24fa d83c a692 45bd 8e30 423d 98fb 363d
00000040: 75b9 903c c17b 32bc 9e84 66bd e6bb 6abd
00000050: c486 8d3d a06f a23c cc7c 493d e803 dbbd
00000060: 6c7e 9abd c67d 4e3d 2ec7 fa3d a8bd 513d
00000070: da6f 833a f849 113e b2ed 063e 7326 f33d
00000080: 314f f03d 50a1 c03d adeb 4d3d 09b9 2f3c
00000090: f8da 133e e8f6 4d3e 4b82 f03d 9121 963d
000000a0: c1e5 343d 3947 ec3d 5a76 2d3e 6b61 323e
000000b0: a574 af3d da82 d33d b365 4c3d ba26 e13d
000000c0: 601a 183e f2b8 b73d d90b fe3d 0cdd 463d
000000d0: 30b0 853d 4d0f e0bc 53fa 0ebe a7a0 b23d
000000e0: bfb8 873a 9258 fa3c c013 de3d 892f b6bc
000000f0: 57ca 813d 5fbe 6bbc 6d79 febc 6fa8 d83c
00000100: e539 aa3c 2668 62be 989e 14be 2e21 86bd
00000110: 1503 a83d 3d45 983d 03b7 023e b281 663d
00000120: b816 4cbd 33b1 2dbe 16cf c1bd f810 9ebd
00000130: 6134 e33c 9241 443c 6900 473d 95d0 bf3a
00000140: 001a b7bd b5eb b6bc ee56 cfbc d44a 193d
00000150: a5fd 213d 2940 e7bc 8192 76bd ad30 5abd
00000160: 9c4e 39bc f9c4 4a3d e020 63bd d050 d1bb
00000170: 4866 dc3c 4c8a 823c 94ee 023d 3e7f ab3d
00000180: 6581 c8bb 72e1 d23d ef73 4d3d 341e 463d
00000190: 4785 88bd 3636 20be 0b32 dbbd 3236 bcba
000001a0: 8ca5 c13d 5994 7b3c 183f 7abd 4afe e6bd
000001b0: f63e 72bd cf9c a9bd 5e04 1dbd d1ed bfbd
000001c0: 3007 abbb c87f cbbd 0d7c 7abe 7e96 50be
000001d0: 3e62 e0bd a2ca 33bd c132 523d b8a1 d4bb
000001e0: 9ba5 b0be 9277 93be c68d a6bd 0def ce3d
000001f0: c770 e93d 8578 4e3e 5cb8 cf3d 97e6 c83d
00000200: 4015 ca3d 99c7 873d de56 293e 7244 0d3e
00000210: 0aa1 aa3d 18cb 37bc 0b80 8e3d d285 a83d
00000220: 657f 193e 5c40 dd3d 810d 843d aab2 78bc
00000230: 69e1 4f3d e473 dd3d 927d bf3d 1d82 8f3d
00000240: 9653 c8bb acba 863d 1b80 963d a09a 563c
00000250: c214 733d d11a 54bd cfc7 d73a b40d 3c3d
00000260: fda5 34bc c4b4 4abd 84c9 14be e48b af3d
00000270: 1109 663d a388 083d 256e 13ba ebad c6bc
00000280: 60f9 a03b f3f2 f5ba 6e0b 6d3d 5de9 173d
00000290: 85b3 dabc 9b51 9e3c bf39 2c3d f6f5 863d
000002a0: c9ce adbd 4223 14be dd53 9b3d 16f5 713d
000002b0: b9ae 8dbc 2cde 41be 8140 c2bd b208 47bd
000002c0: cb26 ff3b 7353 09bc d4d1 193d dd6f 6e3d
000002d0: 55ce 85bd 90e5 8ebd 1801 9bbd 6c04 14bd
000002e0: bcca f2bd 93e2 16bd 344e ecbc 26f8 c53c
000002f0: 35c7 293c bdc4 6abd 9f42 0abd 8b4e 04bd
00000300: 4de8 06bd 0bc0 363d fe57 fc3c 3eec 84bd
00000310: 74ee 51bd 58fe 9fbd 1360 0c3d b5d5 773d
00000320: 3ef7 9bbc e98f 9c3d d175 783d ef76 283d
00000330: 51dd f0bd 9718 39bc ec83 823c eaf6 fabd
00000340: f419 8bbd 5c34 e5bd af3d 9b3d b469 5bbc
00000350: 8dcb 31be 2fa1 3fbe 8565 02be a220 19bd
00000360: 878a 193d 0ee3 20be d502 24be b342 7abe
00000370: 15cb 04bc c06f 6a3c 804c b93b a0f2 01be
00000380: 1d62 36be 53f5 003e b2be 0a3d a855 c03d
00000390: 1f8d ae3c 7d55 2e3d e9a4 cd3d 1846 2a3d
000003a0: 79bf e63c f9ac cb3c 1989 07bc b364 b73d
000003b0: fddd 883c d3d7 633d d08f ed3b f5b7 11bd
000003c0: 7dc6 883c 8e48 70bc 0811 5c3d 7f5d c4bc
000003d0: 4948 d7bc babf bf3d b8b6 813d 1898 ecbc
000003e0: 8632 1dbd 6547 bcbd a470 6dbe 8168 ddbd
000003f0: 2217 3bbe c106 e83d 0d47 a33d adba 16be
-0.061960563 -0.10531839 -0.041862648 0.030904947 0.022497615 -0.06577376 -0.020115856 -0.02946091
0.034995165 0.07272516 0.008271898 -0.03467544 0.026486464 -0.048235558 0.047409587 0.044673532
0.017666558 -0.010893763 -0.056278817 -0.0573081 0.0691047 0.019828618 0.04919128 -0.106941044
-0.07543644 0.050412916 0.12245022 0.05120626 0.0010027841 0.14188373 0.13176611 0.11872568
0.117338546 0.09405768 0.050273586 0.010725268 0.14438999 0.20113719 0.117436014 0.07330621
0.044164423 0.11537022 0.16939679 0.17419975 0.0856717 0.10327692 0.049901675 0.10993715
0.14853811 0.089708224 0.124046035 0.04855065 0.06527746 -0.027351046 -0.13962679 0.08722048
0.0010354741 0.030559812 0.10843611 -0.022239463 0.063374214 -0.01438865 -0.03106376 0.026447503
0.02077956 -0.22110042 -0.14513624 -0.06549297 0.08203713 0.07435081 0.12765126 0.05627603
-0.049826354 -0.16962127 -0.09463327 -0.0771808 0.027734937 0.011978524 0.048584376 0.0014634306
-0.08940506 -0.02232919 -0.025310006 0.037424877 0.039548535 -0.028228836 -0.06019831 -0.053269077
-0.011310246 0.049504254 -0.055451274 -0.0063878074 0.02690424 0.015935086 0.031965807 0.08373879
-0.0061189407 0.102969065 0.05015939 0.048368648 -0.06666046 -0.1564568 -0.10702904 -0.0014359413
0.09455404 0.015355193 -0.061095327 -0.112789705 -0.059142075 -0.08281862 -0.038334243 -0.09371532
-0.0052193627 -0.09936482 -0.24461384 -0.20369908 -0.10956238 -0.043894418 0.051317934 -0.006489005
-0.34501347 -0.28802162 -0.0813251 0.10104189 0.11398464 0.20163162 0.10142586 0.098096065
0.09867334 0.06629867 0.16537043 0.13795641 0.08331497 -0.011217855 0.06958016 0.08228649
0.14990003 0.10803291 0.06447888 -0.015179316 0.050752077 0.1081312 0.093501225 0.07007239
-0.00611348 0.065785736 0.07348653 0.013098389 0.059345968 -0.051783387 0.0016462746 0.045911506
-0.011025903 -0.049488798 -0.14529997 0.08571604 0.05616099 0.033333432 -0.0005624018 -0.024252852
0.0049125403 -0.0018764421 0.05787223 0.037087787 -0.02669693 0.019326022 0.04204726 0.06589882
-0.08486707 -0.14466575 0.07584355 0.059071623 -0.017295228 -0.18932408 -0.094849594 -0.048592277
0.007786607 -0.008381712 0.037553623 0.05821215 -0.06533495 -0.06977379 -0.07568568 -0.03613703
-0.11855075 -0.03683717 -0.028845884 0.024166178 0.010362436 -0.05731653 -0.03375494 -0.032301467
-0.032936383 0.04461674 0.030803677 -0.06490372 -0.051252797 -0.07812184 0.03427131 0.06050654
-0.019038793 0.07644636 0.060659233 0.04112905 -0.11760963 -0.011297367 0.015932046 -0.12254126
-0.067920595 -0.111916274 0.075801246 -0.013391901 -0.17362805 -0.1871383 -0.12734039 -0.037384637
0.037485626 -0.15711614 -0.16016705 -0.24439506 -0.008105059 0.01430887 0.0056548715 -0.1269021
-0.17810865 0.12593584 0.033873267 0.09391338 0.021307526 0.042561997 0.1004122 0.041570753
0.028167473 0.024862753 -0.008272433 0.08954754 0.016707415 0.055625748 0.00724981 -0.035575826
0.01669621 -0.014665736 0.05372718 -0.023970364 -0.026279585 0.09362741 0.06333679 -0.028881118
-0.03837826 -0.09193305 -0.231875 -0.10810948 -0.18270543 0.11329413 0.07972536 -0.14719649

conv2.bias f4 [32]
00000000: 7f91 2b3d be69 f63d ecc6 3e3e c890 773e
00000010: c52b 1abd 04af 93bd e1f5 72be cc4b 7bbd
00000020: d1d6 173e 0a18 ac3d a4aa a33c cf1e 3a3e
00000030: 738b 9fbe 3c82 7bbe 8820 343e 9042 813e
00000040: bb1a 2bbe 8e89 413e d33f 1cbd 0c69 d73d
00000050: 72d8 a13e 17d1 1c3e f7de 143e 3561 2e3d
00000060: 8b84 fd3c c26c 4a3e 2802 77be e4f5 d63e
00000070: f5c6 303e bf42 abbd edac 483e 60c1 703d
0.041886803 0.120318875 0.1863057 0.24176323 -0.037639398 -0.07211116 -0.23726608 -0.061351582
0.1482804 0.084030226 0.019978829 0.18175815 -0.3116108 -0.24561399 0.17590535 0.25246096
-0.16709416 0.18900129 -0.038146805 0.10518083 0.31610447 0.15314136 0.1453818 0.042573173
0.03094699 0.1976805 -0.24121916 0.41984475 0.17263396 -0.0836234 0.19597216 0.058778167

fc1.weight f4 [120, 800]
00000000: 7e8d f4bc dbfd c1bc 73b8 6cbd bfcd 30bd
00000010: 9474 04bd c14c b0bd 7c92 b0bd 9f2c bebc
00000020: b3bf d8bc fdac 00bd 25c1 46bd ffc5 2abd
00000030: 4a3f 9cbd f5e1 c2bb 40f9 12bd ac86 69bd
00000040: e797 bfbc 84f0 08be 1dee 29bd 39ee 00be
00000050: 87cd 193c 679c f73a 2953 01bd f294 7fbd
00000060: add2 88bd ee34 7b3b b331 82bd 659d 65bd
00000070: 6155 b3bd 36c0 353d 2b9a 19bd dd2d 54bd
00000080: 6723 0ebc eddd bbbc 76c3 9a3d 4f48 fbba
00000090: 62b7 323b 8f4c 0dbc fa05 763c ddd0 da3d
000000a0: 2cfc ffbb 1405 9fbc 7f3d 12bd 8975 91bd
000000b0: 3e70 d23c 8556 e63b 90c8 e6bb 0e3b 0dbd
000000c0: eeae 7abb f7ae 3b3d 101b 52be 2f7e d5bd
000000d0: 0077 62bd c65e 87bc 6802 32bd d5dc 2bbe
000000e0: 2490 85bd a7b6 e9bd 4c2e 28bc f9dc d8bc
000000f0: 73d2 4ebd b644 893c a648 39be d51a cfbd
00000100: 8b93 91bc ad9e af3d ce29 04bd 6a6a b6bd
00000110: fbb6 14be 4618 133d bc3c e2b9 d144 71bd
00000120: 451f 27bd 263f 1cbd d985 89bd 02a2 753d
00000130: a040 a1bb dedc ccbc 72d3 e7bc 5904 fa3c
00000140: 59b4 1e3c b774 603c 103a 3f3c f345 4dbd
00000150: d9c1 4abd ed21 89bd 45d8 ac3d 061e 183d
00000160: 74be 0dbd 7cd8 483d 2a84 86bd c9e7 bdbc
00000170: 168a 243c 0804 eebd b5af 24bc 43df 5bbd
00000180: 70c1 aabc 704e 7dbd 8fc7 80bd bb65 4fbd
00000190: 0294 b9bd b39a 4cbd 4b2d fdbc cd2d b03c
000001a0: 23b7 45bc f38a 36ba 112b 3bbc 8a32 d73b
000001b0: ca10 803d 942d 2abd 0378 ac3a a644 223d
000001c0: 0ba7 353d fe61 3f3d 025d 003d 2a24 aa3b
000001d0: f1a9 613d 56af 4c3c 18b7 58bd dd72 22bd
000001e0: 469c 50bc 83f1 2e3c 0543 bfbc 80b8 963b
000001f0: bca2 94bd 0a30 dabc 9505 f3bc 0929 073d
00000200: 429c 9ebc b0a2 613b 1e97 c53c 34c0 3dbc
00000210: 67ca 043d 1274 c2bc f3fb e6bc 0a44 ac3c
00000220: baff 61bc 705d bd3c f20f c2bc a391 003d
00000230: 2045 203c 7632 0abc d8da 69bc b2a4 e2bc
00000240: 6ac9 36bc 6689 d83c 7207 06bd a497 c7bb
00000250: 8012 41bb 9d14 0c3d 8226 e0bd f130 f2bd
00000260: 2f5c 90bd ed3c d3bd a160 9bbc f122 76bd
00000270: 8f5d 53be 3e03 1dbd 44c1 dcbc b66d 68bd
00000280: 24a6 03be 99b3 3cbe bcc0 d4bd e5ed 56bd
00000290: 215b 11be c069 80bd 454e 173e 7c06 993d
000002a0: 416c bebc 6af9 11bc 1bd5 adbd f529 893c
000002b0: 2e25 dc3c ae0e 00bc 7e74 d4bb ac67 0abc
000002c0: 0024 373b b084 bbbc 7089 39bb 150a e6bc
000002d0: b230 c83c 7401 49bc becb a8bc 7421 f3bc
000002e0: 2277 febc f4f8 bb3c 37b4 0b3d 368b 18bc
000002f0: b0dc d33c 60ee cf3a fa05 debc 0445 5b3c
00000300: 3c06 3f3c a1f9 003d 0ffa c5bc 12d6 8bbc
00000310: aaf0 863c 30e1 7a3b 4c01 853c 84d6 793c
00000320: 6346 bebd 9eea a2bd b00f 13bd 432f 1a3d
00000330: b5a9 84bd b209 62bd 5241 a3bd 1aeb b2bd
00000340: 381c 8bbd fc91 86bd 8cbc ebbd 5ca5 55bc
00000350: 5c5f 49bd abe9 7dbb 3350 c33c 725c 66bd
00000360: cf23 7abd 02a7 4abd 158f 19bc f7f4 153d
00000370: d3fb 2bbd 9451 fcbc bde8 833d 7e29 713c
00000380: 9ee2 a43c cdab 4ebd d731 afb9 b92d a3bc
00000390: 782f 5fbc 30f1 cc3a 48e8 83bd b231 c63b
000003a0: c16e 3d3d 228a 36bd 2888 ba3c 939d 00be
000003b0: b02b f4bc 2047 debc 3b7a aabb a5d2 4a3d
000003c0: 4d39 adbd a45d 90bc f139 7cbc c6de 983c
000003d0: c295 5f3d 4b6c e6bd ef27 65bd 1d0c 8e39
000003e0: 119a c1bc 864e 29bb 06bb df3d d1f0 583d
000003f0: 764e 453d d96c bb3c 0bab 33bd 7083 063e
-0.029852625 -0.023680618 -0.057793092 -0.043164965 -0.03233774 -0.0860839 -0.0862169 -0.023214636
-0.026458597 -0.031414974 -0.04852404 -0.04169273 -0.07629259 -0.0059473463 -0.035882235 -0.0570132
-0.023387862 -0.13373 -0.04148685 -0.12590875 0.00938738 0.0018891216 -0.03157345 -0.062397905
-0.06680808 0.003833111 -0.063571356 -0.056058306 -0.08756519 0.04437276 -0.03750054 -0.05180155
-0.008675433 -0.02293297 0.075568125 -0.001917133 0.002726995 -0.00862421 0.015016073 0.10684369
-0.0078120437 -0.019411601 -0.03570318 -0.07102496 0.025688287 0.007029357 -0.007042952 -0.034480147
-0.003825124 0.045821156 -0.20518136 -0.10424458 -0.05528927 -0.016524684 -0.043459326 -0.1678346
-0.06521633 -0.11411791 -0.010264944 -0.026472555 -0.05049367 0.016756397 -0.1809412 -0.1011254
-0.01777055 0.08575187 -0.03226643 -0.089070156 -0.14522927 0.03591182 -0.0004315133 -0.05890352
-0.040801305 -0.03814616 -0.067149825 0.059968956 -0.004921034 -0.025007661 -0.028299067 0.030519651
0.009686553 0.013699702 0.011671558 -0.050115537 -0.049501274 -0.06695924 0.08439688 0.037138008
-0.03460546 0.04903458 -0.06568177 -0.023181813 0.010042688 -0.11621863 -0.010051657 -0.053679716
-0.020844191 -0.061842382 -0.06288063 -0.050634127 -0.090614334 -0.04995222 -0.030905386 0.021506215
-0.012067589 -0.0006963454 -0.011423842 0.006567304 0.06253202 -0.041547373 0.0013158325 0.03961625
0.044348758 0.046724312 0.0313387 0.0051922994 0.05509371 0.012492975 -0.052908987 -0.039660323
-0.012732571 0.010677698 -0.023347387 0.004599631 -0.072576016 -0.026634235 -0.029665748 0.03299812
-0.019361619 0.0034429245 0.02411991 -0.011581469 0.03241959 -0.023736987 -0.02819631 0.021028537
-0.01379388 0.023115844 -0.023689244 0.03138889 0.009782106 -0.008434882 -0.014273368 -0.027666423
-0.011156419 0.026432704 -0.032721944 -0.006091075 -0.002946049 0.034199346 -0.10944845 -0.11825741
-0.070488326 -0.10314355 -0.018966975 -0.060091916 -0.20641159 -0.03833317 -0.026947625 -0.056745254
-0.12856346 -0.18427886 -0.10388324 -0.052472968 -0.14194919 -0.0627017 0.14775951 0.0747194
-0.023244979 -0.008909563 -0.08487912 0.01674364 0.026873197 -0.007816 -0.0064836135 -0.008447569
0.0027945042 -0.022890419 -0.002831068 -0.02808098 0.024437282 -0.012268413 -0.020604964 -0.029679038
-0.031062666 0.022945859 0.034107413 -0.009310534 0.025862068 0.0015863888 -0.02710246 0.013383154
0.011659201 0.031488065 -0.024167089 -0.01706985 0.01647218 0.0038281195 0.01623597 0.015248898
-0.09290769 -0.07954906 -0.035903633 0.03764273 -0.064776815 -0.055185027 -0.07971443 -0.08736248
-0.06792492 -0.06570813 -0.11510572 -0.013039913 -0.049163207 -0.0038744013 0.023841953 -0.056240506
-0.061069306 -0.049475677 -0.009372492 0.03661057 -0.041988205 -0.030800618 0.06440876 0.014719365
0.02012759 -0.05045681 -0.00033415735 -0.019919263 -0.013622157 0.0015635844 -0.064407885 0.0060484046
0.0462482 -0.044565327 0.022770002 -0.1256011 -0.029805988 -0.027133524 -0.0052025593 0.049517293
-0.08458195 -0.017622776 -0.015394674 0.018660914 0.05458618 -0.11251124 -0.055946287 0.00027093376
-0.023633035 -0.0025834157 0.10924344 0.052964035 0.04817053 0.022879051 -0.04386429 0.13136077

fc1.bias f4 [120]
00000000: 223e a0bd 3430 8dbc 0879 a23c 91a2 49bc
00000010: d6a6 e3bd 653c 56bd a9b7 f1bb bc25 6fbc
00000020: 5a13 a13d ddc9 8f3c 321d b93d 9366 09bc
00000030: af7f 063e d5d1 5e3e a325 58bd 8f23 44bb
00000040: 7c40 6c3d ff60 733e 3b6f 97bd 6f17 c33c
00000050: 6c19 a4bd 6e27 983e 512f cdbc 04f9 8c3e
00000060: bdf5 f83b a35c e6bc 2770 133d 51a8 0cbd
00000070: 6fbb 3cbc 0398 423e d6c9 7a3c 9cdc 953d
00000080: 442d c53c 108e 8cbc 9d03 c1bd 3eb7 b63c
00000090: d7bb 953e c6b6 bfbd 3c1f 0fbd 74b4 433c
000000a0: f093 05bd 2682 e23b f79f 993e 7a00 84bc
000000b0: 621b 813e 8dd8 303e 25d2 21bd aceb 86bd
000000c0: 21d5 babc a80c a83b da43 ba3c 13f3 d5bc
000000d0: a670 b13d 3442 2a3c a358 dd3c 51b9 f2bc
000000e0: 25a3 3d3e 67fd 1c3b 0b97 31bd fe6d b1bc
000000f0: d447 f13c 25e8 193e 1bf1 953e 6dc8 adbd
00000100: 1540 833d 6176 0fbe 82b5 12bb bf81 903d
00000110: 1857 0cbc d732 5abd a1be 2aba 5287 563d
00000120: afe4 03bd 9eb5 933e 3756 89be 03d1 9ebd
00000130: 0bd1 e1bc f816 9d3d c76e 903e d6d3 6e3c
00000140: 259b 5a3d f2ad ee3c 967a 29bc 539a 953b
00000150: dfa7 c9ba 4bf1 7e3e 8a02 d23b f670 58bd
00000160: 2616 31bd 51b1 053e 1246 27bd ba79 b9bc
00000170: 663b 383e 66db 8cbd 527d be3d 5633 4ebd
00000180: f856 b6bc 07b0 47bc 83d2 893e 26d9 3e3e
00000190: eaa5 803d bf2b 61bd 9bdb 313e 9aa8 e13d
000001a0: 3b3e 5cbd e410 24bd 598a 90bd 4d9c 9fbd
000001b0: 0129 213e b686 f3bc d374 153c a6d7 da3c
000001c0: 3820 b93b fb00 b4bc c58d 263e 8236 9d3d
000001d0: d565 0d3c b89a 07bc 64aa 563a f3a0 583c
-0.07824351 -0.0172349 0.019833103 -0.012306825 -0.11115806 -0.05230369 -0.0073766303 -0.014596399
0.07865019 0.01755231 0.09038772 -0.008386272 0.13134645 0.21759732 -0.05277027 -0.002992842
0.057678685 0.2376747 -0.073942624 0.023814885 -0.08012661 0.29717582 -0.025046976 0.27533734
0.0075976537 -0.028120345 0.03599563 -0.034340207 -0.011519297 0.190033 0.0153069105 0.073174685
0.024069436 -0.017157584 -0.09424517 0.022304174 0.29244873 -0.09361033 -0.034941897 0.011944879
-0.032611787 0.0069124876 0.30004856 -0.016113508 0.25216204 0.17270108 -0.03950705 -0.065879196
-0.022806706 0.005128462 0.022737432 -0.026116883 0.08664064 0.010391761 0.027019804 -0.029629381
0.18519266 0.002395475 -0.043356936 -0.021658894 0.029453196 0.15029962 0.2928551 -0.08485494
0.06408707 -0.14010002 -0.002238602 0.07055997 -0.008565687 -0.05327114 -0.0006513391 0.052375145
-0.03220051 0.288495 -0.2682359 -0.077547096 -0.0275655 0.076703966 0.28209516 0.014576873
0.053370614 0.029135678 -0.010344168 0.004565516 -0.0015385112 0.24896733 0.006408994 -0.052842103
-0.043234013 0.13055922 -0.04083831 -0.022641052 0.17991409 -0.068777844 0.09301247 -0.050341927
-0.022258267 -0.012187964 0.2691842 0.18637523 0.062816456 -0.05497336 0.17368929 0.11018486
-0.053770285 -0.04005517 -0.07057638 -0.07793484 0.15738298 -0.029727321 0.009122091 0.026714157
0.0056495927 -0.021973124 0.16265018 0.07676412 0.008630236 -0.008276634 0.00081888423 0.013221967

fc2.weight f4 [84, 120]
00000000: 539e 68bd a0d8 70bc f595 053d 5f62 e1bd
00000010: 53c3 f3bd 60c8 1d3c 4a90 153c 9aa8 98bd
00000020: 0c3c 04be d82b 7abd c9e9 953c d616 263e
00000030: ec93 223d 6ea2 7c3d 2137 0bbd dc60 73be
00000040: 04e1 e3bd 1417 04be 71c3 e63d a18c 45bd
00000050: dcc0 18bd 6772 ddbd 821f 77bd 3ffc db3b
00000060: 6502 593d 7998 113d 2300 34be c462 8b3d
00000070: a85b 1dbd 71fa 343d 90b1 203c 59b1 dcbb
00000080: 060d 7dbb c8fd dabc 07db f0bd 334c a7bc
00000090: 42eb 1cbd 8b38 cebc 9266 28bd 948f 38be
000000a0: 2c99 54bd 5ab4 b6bd cf9c 9c3d 9844 e63b
000000b0: aff4 f0bd 6813 07bd 68d7 89bd 3aef 54bd
000000c0: e092 23bb 6751 21bd 422d cdbc 5cdb b8bc
000000d0: eff1 c53d 5ad8 993d a938 923d 8678 bdbc
000000e0: 80c2 73be 9dc8 45bd bcfe 763d 2304 e23c
000000f0: a1d7 c4bd 06c5 153d af06 1f3d 3f91 143d
00000100: 0dbe c9bc 1423 eabd 0156 303d 8c15 f83b
00000110: e51d 65bd 45ff a5bd b00e 43bc 0fa8 13bc
00000120: 5f3e 03bd 7f80 4fbd 4b47 bcbd 302d 683d
00000130: 5d49 b2bc 13a4 a8bc f71c f63c 3259 103d
00000140: 16b0 223e 4006 d0bd 5c00 553d 5ab0 83bd
00000150: 7679 d8bb 6e7d 253c 0100 aa3d e9b9 b3bd
00000160: 6ebe 45bd 7f95 46bc 15f0 e33c 9bea 633d
00000170: 70d3 1e3d 87d3 32bd eb16 393d 33eb dcbc
00000180: 822f b4bc 0d81 893d f68a 37bc ff7a e2bd
00000190: 2cf9 78bd 0614 f7bc 2b67 9abd f276 32be
000001a0: 357a 13bd 67e5 bd3c f1be e3bc 4776 37be
000001b0: 98b5 c8bd 6092 a63b 41a3 423d cff4 b33a
000001c0: 4882 aebc 91d5 06bd 47a7 553c ff10 823c
000001d0: 010b 94bd 1542 043c f2af 833d 04dc 8bbc
000001e0: 06fe 16bd 6563 3d3d 3ddd 6e3d 7ac5 aabb
000001f0: f581 223c 7ba2 c93a c2c6 a2bd e98c e6bd
00000200: 4fd3 0dbd 9353 eabc 3d88 693d ad67 ed3c
00000210: b954 adbd 1061 03bd 9188 abbd c359 c9bd
00000220: f470 0abe 3651 e7bd f1f1 a2bd 563c 043d
00000230: f2b9 5cbd 6cff b33a d770 793d 3136 3f3c
00000240: a88b 3b3d 2ddb 643c 8fd9 16be ce72 d9bc
00000250: 9701 9d3d 063c ecbd dcb8 553d f6ed ddbb
00000260: 5da6 b3bc 62b0 51bd 57ea 1e3c 2772 72bd
00000270: 5658 1ebc 501f 063c 47c6 e33c a95e 40bd
00000280: 0f40 893d 0967 60bc 6142 293d 9428 1bbd
00000290: f6be 62bd 1459 723d 9051 debd 9145 ce3b
000002a0: 0845 b33c 8789 dbbc 1a04 83bd 426c 773c
000002b0: f201 9d3c 8a87 b2bd 2a3e 5abd cbaf f9bb
000002c0: f0f7 57bc 0f76 843d 3477 75bd a859 973d
000002d0: de88 103d e632 8b39 3d0c 03be 4177 b8bd
000002e0: 519e 9ebd e147 16bc 0512 98bd 916f afbd
000002f0: b6c7 a83d 9f65 283d 9e7e 95bd eb90 86bd
00000300: dcb5 a43d 83b8 d6bd 11ad ff3a a945 8cbb
00000310: 3d0f 333d 769f 9ebc b41f 2fbd 9570 6f3d
00000320: 8682 37bd 7a6b 03be 7dca 763c ab91 59bb
00000330: f613 d8bc 8215 47bc c3db 653d a7d8 683d
00000340: 2983 343c 3dc4 dbbc b8a6 89bd d7e4 02be
00000350: a50a b7bd 0896 243d 8e22 98bd 1d8c 4f3d
00000360: fed5 843d 8862 02bd 5e14 1f3d d953 71bd
00000370: 642a 3dbd 50ac 253c c6bd e3bb a37e b7bc
00000380: d7c9 c6bc be3f 8b3d 9dcc 9a3c 5758 71bd
00000390: e178 ec3c fcbb 2c3d 6f91 593d 06b4 243d
000003a0: 5220 ec3b 20e6 643c 61fd 88bc 43e2 aabd
000003b0: c700 acbd 44fd 55bc 958d 813d f996 94bd
000003c0: 27a6 063d 0139 cd3d 2a9c 33bc 1464 8dbb
000003d0: 8d5b d4bd 2d41 d2bd 29d8 b8bc 4c54 d6bd
000003e0: 1e24 153e fca3 c9bc b929 9a3e 9d46 143d
000003f0: e713 ab3d 585c 4ebd 6e06 a2bd b599 abbd
-0.056791615 -0.014700085 0.032613713 -0.11005091 -0.119024895 0.009630293 0.0091286395 -0.07454033
-0.12913531 -0.06107697 0.018299954 0.16219649 0.03969185 0.061678343 -0.033988122 -0.23767418
-0.11126903 -0.12899429 0.11267746 -0.048229817 -0.0372933 -0.10812836 -0.060332783 0.0067134197
0.0529808 0.0355458 -0.17578177 0.068059474 -0.03841749 0.044184152 0.009807959 -0.0067350087
-0.00386125 -0.02673234 -0.11760526 -0.020422077 -0.038310297 -0.025173446 -0.041113444 -0.1802352
-0.05190389 -0.08921118 0.07647096 0.00702722 -0.1176542 -0.03297749 -0.067305386 -0.051985957
-0.002495937 -0.039384272 -0.025045995 -0.022565536 0.09665286 0.07511969 0.07139713 -0.02312876
-0.23804665 -0.048287023 0.060301527 0.027589863 -0.096114404 0.03656485 0.038824733 0.03627133
-0.024626756 -0.11432472 0.04305077 0.007570928 -0.055936713 -0.081053294 -0.011905357 -0.009012236
-0.032041904 -0.050659653 -0.091932856 0.05668372 -0.021763498 -0.02058605 0.030043108 0.035241313
0.15887484 -0.10157442 0.052002296 -0.06430121 -0.006606276 0.010100706 0.08300782 -0.08775694
-0.04827731 -0.012120604 0.027824441 0.05564366 0.03877586 -0.04365876 0.045187872 -0.02696762
-0.02199531 0.067140676 -0.011202564 -0.11058616 -0.060784504 -0.030160915 -0.07539209 -0.17428187
-0.036005218 0.023180677 -0.027801009 -0.17916213 -0.09800261 0.005083367 0.047518972 0.0013729575
-0.021302357 -0.032918517 0.01304037 0.015877245 -0.07228661 0.008072396 0.06430043 -0.017072685
-0.03686335 0.046237368 0.058316458 -0.0052115293 0.0099186795 0.0015383506 -0.07948066 -0.11257345
-0.034625348 -0.028604304 0.057014693 0.0289801 -0.08463425 -0.032074988 -0.08375657 -0.09831574
-0.1351965 -0.11294787 -0.07956303 0.032284103 -0.05388827 0.0013732738 0.060898628 0.011670635
0.045787483 0.013968271 -0.1473143 -0.026544001 0.07666319 -0.11534886 0.05217825 -0.006772752
-0.021929914 -0.051193602 0.009699426 -0.059190895 -0.009664616 0.008186176 0.027804507 -0.046965275
0.06701671 -0.0136964405 0.04132307 -0.037880495 -0.055357896 0.059166983 -0.108554006 0.006294914
0.021883503 -0.026798977 -0.06397267 0.015101494 0.019165967 -0.08717258 -0.05328194 -0.007619833
-0.0131816715 0.064678304 -0.059928134 0.073901474 0.035286777 0.00026550068 -0.12797637 -0.09007121
-0.0774504 -0.009172411 -0.07425312 -0.085662015 0.08241217 0.04111254 -0.07299541 -0.0657061
0.080424994 -0.104844116 0.0019506534 -0.004280765 0.043715704 -0.019363146 -0.042754844 0.058456976
-0.04480221 -0.12833968 0.015062925 -0.0033198397 -0.026376706 -0.012151124 0.056117784 0.05684724
0.011017599 -0.026826972 -0.06721252 -0.12782608 -0.08937577 0.040182143 -0.07428466 0.05067073
0.06486128 -0.031832248 0.038837783 -0.058917854 -0.046183005 0.010111883 -0.006950113 -0.022399252
-0.024266167 0.06799267 0.018896395 -0.058922138 0.028866233 0.042171463 0.053117212 0.040210746
0.0072060013 0.013970882 -0.016722383 -0.08343937 -0.08398586 -0.0130608715 0.06325833 -0.07255358
0.0328733 0.10020638 -0.010962525 -0.0043149088 -0.103690244 -0.102663375 -0.02256401 -0.10465297
0.14564559 -0.024614327 0.30109957 0.036200155 0.083534054 -0.050381035 -0.079113826 -0.08378927

fc2.bias f4 [84]
00000000: 0adc 4cbd 6522 463c 18e3 063a f1d8 1b3d
00000010: 3710 86bd 0c9c b03d 3d42 cfbd a6c0 d1bd
00000020: 2e45 223d 1c1b 103e c17a 373e 3c55 4cbd
00000030: da6e 073d 90c2 1dba 1968 f5bb 1563 853e
00000040: f0e0 ab3b 7d5f 263c 15f7 b43e c579 a5bc
00000050: d989 683e ab29 01be 1651 ffbc 1e80 3f3e
00000060: 2f07 8a3d 8b6b fe3d a341 0b3e 17b9 413e
00000070: 5a1d 723c 992c a8bb 843b 433e 0888 26be
00000080: ad7f 483e 72e1 e63e c4d4 353e f3c5 f4bd
00000090: f557 19bc 621a 98bc faa3 c43e 0df4 92bc
000000a0: 5232 ab3d 121a 2c3e 0eff 223d d77e 45bd
000000b0: 259d 85bd c0db 71bc 1076 5fbd 8862 15be
000000c0: aebf b0bd 0a93 99bd c5b5 033d e170 1abe
000000d0: eaf7 773e 8c54 8a3d 80a4 04be 20ce f43d
000000e0: f21e 573d f9f4 983e 1e43 543e de28 14be
000000f0: 3e2b 633e 8c60 623c 8f71 2e3e 2a00 093e
00000100: 762a 9fbd eec6 afbd 7ff0 a63d 9804 2fbc
00000110: 6684 8e3d 1f5e f13c 7815 673e 90a0 6b3e
00000120: 2f04 4e3e 24b0 10bd 4765 96bd 6a91 80bc
00000130: 648c 4f3e e5b4 d0bd d2e3 adbc 55f0 62bd
00000140: b490 01be f2d2 fcbd ccf5 3abe 88dd 9bbd
-0.050014533 0.012093161 0.0005145534 0.03804869 -0.065460615 0.086235136 -0.10120056 -0.10241823
0.039616756 0.14072841 0.1791792 -0.049885973 0.0330647 -0.0006018067 -0.007489216 0.26052156
0.0052453205 0.010154602 0.3534476 -0.020199666 0.22708835 -0.12613551 -0.031166594 0.18701217
0.067396514 0.12422856 0.13599257 0.18918262 0.014777506 -0.0051322696 0.19065672 -0.1626283
0.19579954 0.45093876 0.17756945 -0.11951818 -0.0093593495 -0.018567268 0.38406354 -0.017938638
0.08359207 0.1680682 0.03979402 -0.048216667 -0.065241136 -0.014761865 -0.054555953 -0.14588368
-0.0863031 -0.074987486 0.03215577 -0.15082122 0.24215665 0.06754407 -0.12953377 0.11953378
0.052519746 0.298744 0.20728728 -0.14468715 0.22184464 0.013816964 0.17035507 0.13378969
-0.07771771 -0.08582865 0.0815134 -0.010682248 0.06958847 0.029463826 0.22566783 0.23010468
0.20118783 -0.03532423 -0.07343536 -0.015694339 0.20268399 -0.10190753 -0.021226797 -0.05540498
-0.12652856 -0.12344922 -0.18257827 -0.07610613

fc3.weight f4 [10, 84]
00000000: 6557 a8be 4ba9 66bd 67c7 363d a98f 93bd
00000010: e0b0 f13d af93 1bbe a3aa adbc 6220 3fbc
00000020: da7c 743d 5592 a3bb 268e 1c3c 2b2a 333e
00000030: 736c 9c3d 2199 f8bc 9d87 9f3d 9bbe 923d
00000040: 3794 a43c e281 3dbe 8277 84be 0068 aa3d
00000050: 5b91 95be ac67 8c3c d38c 7bbd e2df 443d
00000060: 5b43 82be af43 8ebd e271 8d3b 9dd0 fa3d
00000070: 0c48 d0bd 7ab5 06bd f2c4 24be 6ac0 dcbc
00000080: 54bd 1abe 1c53 8a3c 0aa2 04be 57ce 05bd
00000090: 8646 2ebd 4795 93bd aee7 66be ea84 b1bc
000000a0: 11c1 3b3d 09c6 d53d 9054 ed3d 2123 16bd
000000b0: af6d 54bd 47d8 8fbe a529 813d c509 6fbd
000000c0: 4b6c c1bd ce05 0b3d bb4e a13d 935a 0f3d
000000d0: fc16 fb3d ea9a 0c3e ca4c fb3c 1a86 dabd
000000e0: b072 6dbe 46a1 373c ca5e 2e3d 32b3 913d
000000f0: 335a 22be c920 c53d 291b 083e c8a3 28bb
00000100: 7b47 043e 3a0b 293e 0bb2 093e 4c02 7abc
00000110: 6696 94bd 6db0 38bd a5ba 5fbe de47 283d
00000120: 8003 6f3c 72a7 aa3d 624c 61be 00ff 7f3d
00000130: 508a 92be fb1b 8c3b 7148 7bbd 3a54 40be
00000140: 8204 d7bc 51f9 b53d 0458 513d 8e9a f63d
00000150: a016 4ebe bac5 cbbd 00af 92bc 5b43 f6bc
00000160: bed6 dfbc 0b6c debd 656b efbc 4f35 63bd
00000170: f76e 97bd cb26 0f3e 98c7 3dbe bf0c 60bd
00000180: 4c81 4fbe ffc6 eb3c 0863 4dbe 78cc 60be
00000190: 35f2 013e 2566 f1bc 04ea 9d3c fc5a 933c
000001a0: 1998 c33d cdb0 9d3d e6d2 acbd 26cc 73be
000001b0: ab12 423c d98e 8cbe 098f b73d 64e5 8fbc
000001c0: cf15 353d 4958 9d3d 4cbe ac3d 0cc4 cabd
000001d0: db53 5dbd ac37 eabd b6c1 39be 2858 13be
000001e0: eff9 99bd 0f89 46be 00bd acbe ee3f 203e
000001f0: 6838 973c 5376 8ebe ae91 98be 67e4 013e
00000200: 1537 a63d 7920 17be 64ed 81bc 094a 55bd
00000210: 474a eabd 3cc8 043c e97e 9ebe 6955 ba3c
00000220: 5d02 ae3a 458a 9dbc c05e 6e3d 0108 ddbd
00000230: dc74 ed3d e625 4abe 7a07 02bd 53ab 96be
00000240: d7f4 8ebd ebe0 da3d 03eb 5cbd 32b6 91bd
00000250: 8685 043e b90d 9ebc 60bf 02be bd74 c13d
00000260: 5c05 233e fc72 9dbd cd1e 18bd 8ecf 73be
00000270: a098 99bd 1bbb 94bd 34a9 cdbd b424 063e
00000280: 2739 84be 67e7 073c bcdc ed3c 0714 86bd
00000290: 9bf3 c43d ee1c bc3b 2fb7 7d3e 2f84 223e
000002a0: ac06 5fbe f301 59bd dd10 88bd 4fb8 aabd
000002b0: c41a 38bd ff77 c93d 85dd b6bd f384 c8bd
000002c0: 21ea 0b3e cc81 fbbd 1f67 c2bd 0d33 06be
000002d0: fe7c b8bd 8297 ac3d 22b5 c83d f7f9 6ebb
000002e0: 661e a4bc 8a54 903e 3ec1 92bc 878e 37be
000002f0: d32e 8ebd dee9 2abe 50dc e2bd 82db 4b3e
00000300: 689f 723d 9090 0f3e a391 ecbd 84d6 7fbd
00000310: 4f33 8abd 5c39 aebd e539 273e f48b 35bd
00000320: a13c aa3d 2a57 07be 1abe f7bd 74c7 37bd
00000330: 5710 7a3d 91e7 ffbd 7c4b d43d d8c9 8dbd
00000340: ed5b d6bd a488 40bd d6d3 d73c 02c7 23be
00000350: 55be 213d 7f6d 05be 06e5 063e e733 99bd
00000360: 0710 ecbb 1637 e1bd cdab e63d b0bf d5bc
00000370: 6804 be3d 5e17 143d 7edb 2cbd 6f9e 9abd
00000380: 5beb a5bc 9d63 bf3d 0794 3b3e db53 a93d
00000390: 2e87 8fbd 720f dabd 1478 703c 13c6 8bbc
000003a0: 178e a1bd 1106 be3d ca85 80bc 4105 a3bd
000003b0: f974 383a 2e0a 0f3e 4b5a 43be 540b 4f3d
000003c0: 015f afbd 5a61 4cbe cb2f b5bd 7e91 b9bd
000003d0: 16a5 883c 5a33 323d d509 183d da9f 7f3d
000003e0: 7986 febc d1f6 9fbd 31b5 8a3d a068 823d
000003f0: d384 17be 23b1 843d 5807 5cbe f2e0 4bbd
-0.32879177 -0.056313794 0.04462376 -0.072051354 0.11801314 -0.15193056 -0.02119953 -0.0116654355
0.05968938 -0.0049918094 0.009555375 0.17496555 0.076378725 -0.030346455 0.07789538 0.07165261
0.020090206 -0.18506578 -0.25872427 0.08320618 -0.2921246 0.017139278 -0.061413597 0.048065074
-0.25442013 -0.06946503 0.0043165544 0.12246821 -0.10169992 -0.032887913 -0.16090754 -0.026947219
-0.15111285 0.016885333 -0.12952438 -0.032667484 -0.042547725 -0.07206207 -0.22549316 -0.021669824
0.04583842 0.10438163 0.11588395 -0.036654595 -0.051862415 -0.28094694 0.06306771 -0.058358926
-0.09444483 0.033941083 0.07876345 0.034998488 0.12260243 0.1373097 0.030676264 -0.10670109
-0.23188281 0.011207884 0.042570867 0.07114257 -0.15854721 0.09625394 0.13291611 -0.0025732387
0.12917893 0.16508189 0.13446824 -0.015259337 -0.07255249 -0.045090128 -0.21848543 0.041084163
0.014588237 0.08332719 -0.22001794 0.062499046 -0.2862115 0.0042757965 -0.061348382 -0.1878213
-0.026247267 0.08885444 0.05110933 0.12041198 -0.20125818 -0.09949823 -0.017905712 -0.030061414
-0.027324077 -0.10860451 -0.029226014 -0.05547076 -0.07394212 0.13979642 -0.1853317 -0.054699656
-0.20264167 0.028781412 -0.20057309 -0.21952999 0.12690051 -0.029467652 0.019276626 0.01798772
0.09550495 0.07699738 -0.08438663 -0.23808345 0.011845271 -0.27452734 0.08962829 -0.017565437
0.04421025 0.07682855 0.08434734 -0.09900674 -0.05403505 -0.114364 -0.18140301 -0.14389098
-0.07518374 -0.19388221 -0.33737946 0.15649387 0.018459514 -0.2782465 -0.29798645 0.12684785
0.08115975 -0.14758481 -0.015860267 -0.05207256 -0.114399485 0.00810438 -0.309562 0.022745805
0.0013275851 -0.019230971 0.05819583 -0.10792542 0.11594555 -0.1974102 -0.03174541 -0.29427585
-0.06980293 0.10687431 -0.053935062 -0.07114829 0.1294156 -0.019293653 -0.12768316 0.09446094
0.15920013 -0.07687947 -0.03713875 -0.23809645 -0.07499814 -0.0726225 -0.100420386 0.13099939
-0.25824854 0.008294917 0.029035918 -0.06546789 0.096167766 0.0057407534 0.2477691 0.15870737
-0.21779889 -0.052980375 -0.066438414 -0.08335935 -0.0449474 0.098373406 -0.0892897 -0.09790983
0.13663532 -0.12280616 -0.09492325 -0.13105412 -0.09008215 0.08427335 0.09800173 -0.0036464909
-0.020034026 0.28189498 -0.01791441 -0.17925464 -0.06942525 -0.16690776 -0.110771775 0.19907954
0.059234053 0.1401999 -0.115512155 -0.062460437 -0.067480676 -0.08507034 0.16330679 -0.044322923
0.08312345 -0.13216844 -0.12096806 -0.044867948 0.06105074 -0.1249534 0.1036596 -0.06923264
-0.10466752 -0.04700531 0.026346128 -0.15993884 0.039488155 -0.1303005 0.13173303 -0.07480603
-0.007204059 -0.10996835 0.11263237 -0.02609238 0.09278184 0.036155097 -0.04220151 -0.0754975
-0.020253828 0.093451716 0.18318187 0.08267947 -0.07008205 -0.10647477 0.014677066 -0.017062223
-0.078884296 0.09278501 -0.015688796 -0.079599865 0.0007036473 0.13968727 -0.19077413 0.050547913
-0.085630424 -0.19959012 -0.088470064 -0.090609536 0.016680282 0.043506004 0.03711875 0.062408306
-0.031069981 -0.07810748 0.06772841 0.06367612 -0.14796762 0.06479099 -0.21487176 -0.04977507

fc3.bias f4 [10]
00000000: c9d6 cebc 07bf 17be a7ca 383d 595a 80bd
00000010: 91a8 263e 0976 cabd 5687 aa3d 5cfb f9bc
00000020: 1156 923d af41 573d
-0.025248902 -0.14818965 0.04511514 -0.062672324 0.1627524 -0.09885795 0.083265945 -0.030515365
0.07145322 0.052552875
